model_acc_66aug.pt (torch, 536152 bytes, 6 tensors)

fc1.weight f4 [64, 2048]
0	0xbc34d55e	-0.011037199
1	0x3cb99882	0.02265573
2	0xbd094576	-0.03351351
3	0xb8a6fa9c	-7.9621765e-05
4	0xbcec1a30	-0.02882108
5	0xbc808eb0	-0.015693039
6	0xbc92fbc7	-0.017942322
7	0xbc519389	-0.012791523
8	0x3b23e737	0.002500964
9	0xbc87dd52	-0.016585026
10	0x3adb4769	0.0016729656
11	0xbcb6c52f	-0.022310821
12	0xbce2799c	-0.027645878
13	0xbc8b97db	-0.017040184
14	0xbc36eda9	-0.011165061
15	0xbd36786d	-0.04454844
16	0xbcf4b3db	-0.029870918
17	0xbc8f41d7	-0.01748745
18	0xbcb9b1c5	-0.022667775
19	0x3cab90d7	0.020943088
20	0x3b73a5cc	0.003717768
21	0xb90d29fa	-0.00013462445
22	0xbd0f0806	-0.03491976
23	0xbd130524	-0.035893574
24	0x3d24c8d0	0.040230572
25	0xbcae23db	-0.021257332
26	0xbd1d18c4	-0.038353696
27	0xbcc469ae	-0.023976173
28	0x3c1a0f7f	0.009403109
29	0x3cec191f	0.028820572
30	0x3c673854	0.014112551
31	0xbc794e9c	-0.015216496
32	0xbd292cb0	-0.041302383
33	0xbcd12adb	-0.02553313
34	0xbcf7058c	-0.030154012
35	0xbd9e926e	-0.07742773
36	0xbceca3dc	-0.028886728
37	0xbd0785e1	-0.03308666
38	0x3ad00cc4	0.0015872945
39	0xbd2e031b	-0.04248343
40	0xb9bae936	-0.0003565044
41	0xbc339d41	-0.010962785
42	0x3cb51b9b	0.02210789
43	0xbd45607b	-0.048187714
44	0xbcd4c976	-0.02597497
45	0xbb28fc4b	-0.0025785144
46	0xbbcf2b6e	-0.006322316
47	0x3c61b50f	0.013776078
48	0x3c993762	0.018703166
49	0xbba50c62	-0.0050368765
50	0xbc1b890c	-0.009493124
51	0xbc430cc6	-0.011904901
52	0x3c31b282	0.010845782
53	0xbc8ca13f	-0.017166732
54	0x3c41a597	0.011819265
55	0xb9ad91c3	-0.00033105732
56	0xbce37ede	-0.027770456
57	0x3b113415	0.0022156287
58	0xbcd99da6	-0.02656443
59	0xbcd9265d	-0.02650755
60	0xbca69170	-0.020333022
61	0xbb78db0f	-0.0037972366
62	0xbb0622dc	-0.0020467555
63	0xbc404c72	-0.011736976
64	0xbb9090a3	-0.0044117733
65	0xbd0acf08	-0.033888847
66	0x3c460b8d	0.012087715
67	0x3a6806e7	0.0008851126
68	0xbb03baff	-0.0020100472
69	0xbc8e7eaa	-0.017394383
70	0x3c5d4bcf	0.013506844
71	0x3c92dd65	0.017927835
72	0xbb7c00d6	-0.0038452647
73	0x3bd92a67	0.006627369
74	0xbcb3cc88	-0.021948114
75	0xbc34b647	-0.011029786
76	0xbd22fd39	-0.039792273
77	0xbc9b906f	-0.01898977
78	0xbd2efad2	-0.04271967
79	0x3d25b980	0.04046011
80	0xbcdd230a	-0.026994247
81	0xbc87c9e8	-0.016575769
82	0xbcc54df0	-0.024085015
83	0xbcf94290	-0.030427247
84	0x3c877a7b	0.016537895
85	0x3cc92bb9	0.024556981
86	0xbd344fb3	-0.04402132
87	0xbcb2e57e	-0.021837946
88	0x3c1d2e89	0.009593614
89	0xbd050cfe	-0.032483093
90	0xbceb776a	-0.028743464
91	0xbc3238d1	-0.010877804
92	0xbc879ed6	-0.016555231
93	0xbd7fe1b7	-0.062471118
94	0xbb96e2ee	-0.004604689
95	0x3c0f8255	0.008759101
96	0xbc19aa7b	-0.009379025
97	0x3c16745b	0.009183015
98	0x3ce0d47c	0.02744507
99	0xbd4dcb9a	-0.050242998
100	0x3baa3b97	0.005195092
101	0x3bedaeb8	0.007253494
102	0x3c280177	0.0102542555
103	0xbb482d2f	-0.003054451
104	0x3d0af061	0.03392065
105	0x3a9ca06a	0.0011949663
106	0xbb6c118f	-0.0036021208
107	0xbc1ba245	-0.009499137
108	0xbcb19c78	-0.021681055
109	0x392b6de2	0.00016348765
110	0xbca0e59c	-0.019640736
111	0xbceeac8a	-0.029135007
112	0xbc650ef5	-0.013980617
113	0xbc5be58c	-0.013421427
114	0x3cb5003a	0.022094835
115	0xbcf844e8	-0.030306295
116	0xbd0ee44f	-0.0348857
117	0xbb810909	-0.0039378447
118	0xbd2cacae	-0.042156868
119	0xbc1724f4	-0.009225119
120	0xbca9ac86	-0.020712148
121	0xbcf988a5	-0.030460665
122	0xbc928d59	-0.017889665
123	0x3d767d69	0.060178194
124	0xbcf0ecd3	-0.029409802
125	0xbc8e8071	-0.01739523
126	0xbc919c41	-0.017774703
127	0xbbe6f44c	-0.0070481654
128	0xbce0a9e1	-0.027424755
129	0x3cc6c918	0.02426581
130	0xbc63ea39	-0.0139108235
131	0xbc9ee6ed	-0.019397223
132	0x3cc42a25	0.023945877
133	0xbd8510e2	-0.06497361
134	0x3b0bea9c	0.0021349555
135	0xbd1e0d29	-0.03858677
136	0xbd71a967	-0.058999445
137	0x3cd60271	0.026124211
138	0xbc8e2ed0	-0.017356306
139	0xbcc43524	-0.02395112
140	0xbc9ee204	-0.019394882
141	0x3c5ef872	0.013609039
142	0xbb27e58d	-0.0025619
143	0xbb5ca3fd	-0.003366708
144	0xbba89cae	-0.005145631
145	0xbcb58dc5	-0.022162328
146	0x3b168dbb	0.0022972662
147	0x3c36bc93	0.011153358
148	0xbc8c91c2	-0.017159346
149	0xbba0f714	-0.0049122665
150	0x3b27ed93	0.0025623783
151	0xbd29b507	-0.041432407
152	0xbbadf4cf	-0.0053087245
153	0xbd0df749	-0.034659658
154	0xbd03c062	-0.032165892
155	0x3bfd3cef	0.007728211
156	0xbd34e947	-0.044167783
157	0x3ba00eb5	0.0048845657
158	0xbcad552a	-0.021158773
159	0x3bd09622	0.0063655535
160	0x3aa07559	0.0012242004
161	0xbcbe626b	-0.023240289
162	0xbd17a40d	-0.037021685
163	0x3c8a2ead	0.01686796
164	0x3c4a43f3	0.012345302
165	0xbc7d92e5	-0.015476917
166	0xbc5cf737	-0.013486675
167	0xbd4056d8	-0.04695782
168	0x3cd3281c	0.025775962
169	0x3c2f6320	0.010704786
170	0xbd36da03	-0.044641506
171	0xbcce594e	-0.025189068
172	0x3cd6affc	0.026206963
173	0xbd1809a0	-0.037118554
174	0xbbc5ce8f	-0.0060365866
175	0x3c9a00a5	0.018799135
176	0xbd0fe444	-0.0351298
177	0xbc5f4f4a	-0.013629744
178	0x3b4954dc	0.0030720746
179	0xbc22112a	-0.009891788
180	0xbca3ad4c	-0.019980095
181	0xbd9e9ccb	-0.0774475
182	0xbbda731c	-0.006666554
183	0xbcf6c888	-0.030124918
184	0xbc7ee067	-0.015556431
185	0x3c08427e	0.008316634
186	0x3973cb94	0.00023250125
187	0x3b1b6931	0.0023713822
188	0x3cf42d9b	0.029806903
189	0x3c696d92	0.014247315
190	0x3b96752f	0.004591606
191	0x3c30aa2a	0.010782758
192	0x3baa8b50	0.0052045956
193	0xbd2970d9	-0.041367386
194	0xbd538969	-0.051644716
195	0xbcd7c213	-0.026337659
196	0xbc0c22f9	-0.00855326
197	0x3c5735b5	0.013135363
198	0xbd882381	-0.06647397
199	0x39b33cb4	0.00034186768
200	0xbd8c838e	-0.068610296
201	0x3c1e775f	0.009672015
202	0xbbb8f7ce	-0.005644775
203	0xbcdae52d	-0.026720608
204	0xbb813ec7	-0.003944251
205	0xbcfb6f45	-0.030692706
206	0x3b2b4c79	0.002613811
207	0xbcfbc7ea	-0.030734975
208	0x3c88d64d	0.01670375
209	0xbca2e2cb	-0.019883534
210	0x3c1f5346	0.009724444
211	0xbc62a391	-0.013832943
212	0xbc88a9a1	-0.016682448
213	0xba8f5d15	-0.0010937775
214	0xbb27f3a2	-0.0025627394
215	0xbc951fd2	-0.01820365
216	0x3ca04958	0.019566223
217	0xbcd2157c	-0.02564501
218	0x3ce0b3a1	0.027429404
219	0xbd69e08e	-0.057098918
220	0xbb634d41	-0.0034683498
221	0xbd0b6370	-0.034030378
222	0xbc73c61c	-0.014878776
223	0xbceddbbb	-0.02903544
224	0xbbe390a4	-0.0069447327
225	0xbca63cb4	-0.020292617
226	0xbc805981	-0.015667679
227	0xbd1e5e2d	-0.03866403
228	0xbb0cbea6	-0.002147594
229	0x3b21b212	0.0024672789
230	0xbb01a3bb	-0.001978143
231	0xbc1bebfd	-0.009516713
232	0xbb904177	-0.0044023353
233	0x3a029c41	0.000498239
234	0xbc5c218f	-0.013435735
235	0xbd044856	-0.032295547
236	0xbdc7c89f	-0.09755062
237	0xbd59149d	-0.052998174
238	0xbbe38dbe	-0.006944387
239	0x3c23e760	0.010003895
240	0xbc80c91a	-0.015720893
241	0xbc7833b2	-0.015149044
242	0xbc49955b	-0.0123036755
243	0x3c837dd0	0.016051203
244	0x3bf054a8	0.0073343106
245	0xbc4228ab	-0.011850516
246	0xbc990acc	-0.018681906
247	0x3c41446d	0.011796099
248	0x3c03fe4f	0.008056237
249	0x3bef1255	0.0072958865
250	0x3ceb2282	0.028702978
251	0xbd480d2b	-0.048840683
252	0xbca79906	-0.02045871
253	0x3b42613b	0.0029660005
254	0x3bb3aa1a	0.005482924
255	0xba28a502	-0.00064332795

fc1.bias f4 [64]
0	0x3c62f197	0.013851545
1	0x3c02b84c	0.00797851
2	0xbc57b92c	-0.013166707
3	0xbc2ab607	-0.010419375
4	0xbcd0f615	-0.025507966
5	0xb9b5e861	-0.00034696146
6	0x3c0ed9fc	0.008718964
7	0x3be23cb6	0.00690421
8	0xbcff866f	-0.031192033
9	0xbce5ca7b	-0.028050652
10	0x3a5a1050	0.0008318471
11	0x3d563b14	0.052302435
12	0xbd064008	-0.03277591
13	0xbc3bf46a	-0.011471847
14	0xbd042839	-0.03226492
15	0x3b1f40fe	0.0024300213
16	0xbb077455	-0.0020668705
17	0xbcd474f8	-0.025934681
18	0xbc896c23	-0.016775196
19	0xbc1a8ce2	-0.009433003
20	0xbbf647d7	-0.007515888
21	0x3d148c50	0.036266625
22	0x3bc4c144	0.0060044844
23	0xbbda7fba	-0.006668058
24	0xbcb583af	-0.022157518
25	0x3b0a4366	0.0021097302
26	0x3c0899f5	0.0083374875
27	0xbb56909f	-0.003274001
28	0xbd4c1d42	-0.04983259
29	0xbb83783d	-0.0040121363
30	0xbc83d01f	-0.01609045
31	0xbc235536	-0.009969046
32	0xbb454afa	-0.0030104504
33	0x3b4da036	0.003137601
34	0x3d2bec31	0.041973297
35	0x3c844fa0	0.01615125
36	0xbbee3905	-0.007269981
37	0xbb2ca9b8	-0.0026346277
38	0x3c888c54	0.016668476
39	0x3c52ae7b	0.012858982
40	0xbbabf51a	-0.0052477242
41	0xbc62b3e2	-0.013836833
42	0xbc954df3	-0.018225646
43	0xbcf6b2ae	-0.030114498
44	0xbc6c8892	-0.014436858
45	0xbcbb9df0	-0.022902459
46	0xbc674cc8	-0.014117427
47	0xbce399b2	-0.027783249
48	0x3a38acc1	0.00070447853
49	0xbbe0e29c	-0.0068629514
50	0x3ae13275	0.0017181175
51	0xbc8e1c1d	-0.01734739
52	0x3b96919e	0.0045949956
53	0x3b41086d	0.0029454485
54	0xba523c04	-0.0008019807
55	0x3c8106e8	0.015750363
56	0xbc972b6e	-0.018453326
57	0x3c23ed5b	0.01000532
58	0xbaa5b7fe	-0.0012643335
59	0xbca87eca	-0.02056827
60	0x3ca6d86d	0.020366872
61	0xbbd68e91	-0.006547757
62	0x39c81adb	0.00038166982
63	0x39c74261	0.00038005694

fc2.weight f4 [32, 64]
0	0xbd31357f	-0.04326391
1	0x3d66dcdc	0.05636297
2	0xbdb1f25a	-0.08688803
3	0xbc308b68	-0.010775425
4	0xbd08e6fc	-0.03342341
5	0x3d87a0f7	0.066224985
6	0xbde5f770	-0.112288356
7	0xbc65ee60	-0.014033884
8	0x3d7ccce9	0.061718855
9	0xbc20aeb0	-0.009807274
10	0x3ccd5508	0.02506496
11	0xbe934d1e	-0.28769773
12	0xbd9c5f76	-0.07635395
13	0xbcef35e0	-0.029200494
14	0x3b4ce5e4	0.0031264955
15	0xbb6bbbc0	-0.0035970062
16	0xbda63fd0	-0.0811764
17	0xbda22c8e	-0.079186544
18	0xbc223040	-0.009899199
19	0xbde61456	-0.112343475
20	0xbd9a7490	-0.07541764
21	0xbe7c17ff	-0.24618529
22	0x3d417d42	0.047238596
23	0x3c36ad60	0.011149734
24	0x3de0bd91	0.10973657
25	0xbb499bc0	-0.0030763
26	0xbd8c6bc0	-0.06856489
27	0x3c76c4d0	0.015061572
28	0x3de6ddd6	0.112727806
29	0xbd918bf0	-0.07106769
30	0xbdff8488	-0.1247645
31	0x3d3192b2	0.04335279
32	0x3c4c35f0	0.012464032
33	0xbd347eb6	-0.044066153
34	0xbf0876bb	-0.5330617
35	0x3d774d2c	0.06037633
36	0xbd9db738	-0.07700962
37	0xbdd5de6a	-0.10442813
38	0x3e913656	0.28361768
39	0xbdf9c506	-0.12195782
40	0x3d41e2d4	0.04733546
41	0xbd138c1c	-0.03602229
42	0x3de82142	0.113344684
43	0xbd83a5c0	-0.06428099
44	0x3dff3560	0.12461352
45	0xbdad960a	-0.08475883
46	0xbdbe099a	-0.09279175
47	0xbd576ea4	-0.05259575
48	0xbdf4a512	-0.11945547
49	0x3d8e200b	0.069397055
50	0x3df58586	0.11988358
51	0x3e5320e3	0.20618014
52	0xbd3e40a4	-0.046448365
53	0x3d555740	0.05208516
54	0x3ce42818	0.02785115
55	0x3de4f41d	0.111793734
56	0xbc75ea00	-0.015009403
57	0xbb5ed8fd	-0.0034003847
58	0xbc212e90	-0.0098377615
59	0xbd75915d	-0.059953082
60	0xbe95412d	-0.29151288
61	0xbde0e8fc	-0.10981938
62	0x3db7d34a	0.08975847
63	0xbded8c44	-0.11599019
64	0xbd814933	-0.0631279
65	0x3da89ec4	0.08233407
66	0xbd998fce	-0.07498132
67	0x3cd086c7	0.025454892
68	0xbd76840c	-0.060184523
69	0x3d4fa9a7	0.050698902
70	0xbd241e54	-0.040067986
71	0xbdc3d0ce	-0.09561311
72	0xbd4723c3	-0.04861809
73	0x3ce11c18	0.027479216
74	0xbd11e8ac	-0.035622284
75	0x3e89c3b7	0.2690713
76	0xbd220eac	-0.039564773
77	0xbd8f7b24	-0.07005909
78	0x3da4d3ad	0.080481865
79	0xbc1564d0	-0.009118274
80	0xbbbfbb60	-0.0058511943
81	0xbdba63a0	-0.09101033
82	0xbdab910e	-0.08377276
83	0xbdac3e70	-0.084103465
84	0x3dba3d4a	0.09093721
85	0x3e10be00	0.14134979
86	0xbdd62cd0	-0.10457766
87	0x3dd6e804	0.10493472
88	0xbe0f92f0	-0.14020896
89	0x3db4795c	0.0881221
90	0xbdae4ab6	-0.08510344
91	0x3ccd33f8	0.025049195
92	0xbeea4658	-0.45756793
93	0xbae52f00	-0.001748532
94	0xbdc4c854	-0.09608522
95	0xbd49dac3	-0.049280893
96	0xbcda58a0	-0.026653588
97	0xbdfbf630	-0.12302816
98	0x3d95d014	0.073150784
99	0xbceeca78	-0.029149279
100	0x3c8a3f48	0.016875878
101	0xbda5b1c6	-0.08090548
102	0x3db2709e	0.08712886
103	0xbda1f9b4	-0.07908955
104	0x3d282dc0	0.041059256
105	0xbad7c900	-0.0016463101
106	0xbda76950	-0.08174384
107	0x3cfad9e5	0.030621478
108	0x3bbfe760	0.0058564395
109	0x3d607714	0.05480106
110	0xbce3ae70	-0.02779314
111	0x3c7d1ee0	0.015449256
112	0xbc57afe0	-0.01316449
113	0xbcc39ca8	-0.02387841
114	0xbe2a67d2	-0.16641167
115	0xbe98c7cf	-0.29839942
116	0xbbc72dc0	-0.006078452
117	0xbdd130d8	-0.10214394
118	0x3d2575cc	0.040395543
119	0x3d227e14	0.03967102
120	0xbc632060	-0.013862699
121	0xbcdb32f5	-0.026757697
122	0xbd95d4a0	-0.073159456
123	0x3ab73e80	0.0013980418
124	0xbd580a73	-0.05274434
125	0x3dc61d36	0.0967354
126	0xbc89da78	-0.016827807
127	0xbd8a23a8	-0.06745082
128	0x3bc763ac	0.00608488
129	0xbd8e37a8	-0.06944209
130	0xbd82c7bc	-0.063857526
131	0xbdaa482e	-0.083145484
132	0xbc23cec0	-0.0099980235
133	0x3ebee484	0.3728372
134	0x3dee63c6	0.11640124
135	0xbdcd1273	-0.100132845
136	0x3e176075	0.14782889
137	0xbdba24eb	-0.09089073
138	0xbdd16c24	-0.10225704
139	0x3e15df46	0.14635953
140	0xbc276e4c	-0.010219168
141	0xbd5a00a6	-0.053223275
142	0xb9a59000	-0.0003157854
143	0x3defb068	0.11703569
144	0xbd3656f1	-0.044516508
145	0x3f0b007c	0.54297614
146	0xbd02ce8b	-0.031935256
147	0x3dfe4580	0.124156
148	0x3da702b2	0.08154811
149	0xbd7ceb80	-0.061748028
150	0xbd22b559	-0.039723728
151	0x3c8b44f2	0.01700065
152	0x3e1cc9f4	0.15311414
153	0x3d88f2b4	0.06686917
154	0x3e0b0558	0.13576257
155	0xbb027059	-0.001990339
156	0x3da16002	0.0787964
157	0xbcb9597e	-0.022625681
158	0x3daf3f31	0.08556975
159	0x3c0fe8cd	0.008783531
160	0x3c99de68	0.01878281
161	0xbd7be134	-0.061494067
162	0xbdb0998e	-0.08623038
163	0xbcc24355	-0.023713747
164	0xbdb305aa	-0.08741315
165	0xbd5a7f67	-0.053344157
166	0xbdcd1853	-0.10014405
167	0xbb6990d4	-0.0035639303
168	0x3c9cc0e1	0.01913494
169	0x3d1d5982	0.03841544
170	0xbd9f1650	-0.07767928
171	0x3de86ed2	0.11349262
172	0xbda4687b	-0.080277406
173	0x3dca4593	0.098765515
174	0x3d827b40	0.06371164
175	0xbd9f70eb	-0.07785209
176	0xbd176d58	-0.036969513
177	0xbdc498ea	-0.095994785
178	0x3e387cdc	0.1801638
179	0x3f111afe	0.5668181
180	0x3cc9a22e	0.024613466
181	0x3d6bc55a	0.057561256
182	0xbd829d42	-0.06377651
183	0x3db95d92	0.0905105
184	0xbc7f5bc0	-0.01558584
185	0x3e10e887	0.14151202
186	0x3d6ec860	0.05829656
187	0x3db2ab12	0.08724035
188	0x3e124134	0.14282686
189	0xbdf62432	-0.120186225
190	0x3d8c1288	0.06839472
191	0xbdbb1ef1	-0.09136761
192	0xbda7ceb5	-0.08193723
193	0x3c8cf288	0.017205492
194	0x3cdb0830	0.026737303
195	0xbd9480a0	-0.07251096
196	0xbc97faaa	-0.018552143
197	0xbe2a634b	-0.1663944
198	0xbdd681af	-0.10473954
199	0xbda94a02	-0.08266069
200	0x3d314312	0.043276854
201	0x3db8e15b	0.09027358
202	0xbd637cb4	-0.055538848
203	0xbe0c775a	-0.13717404
204	0xbc8f5330	-0.017495722
205	0x3dd282d6	0.10278861
206	0xbe06b098	-0.13153303
207	0x3c49f547	0.012326545
208	0x3cc41e8f	0.023940353
209	0xbe216b29	-0.15763535
210	0x3e000e8c	0.12505549
211	0x3d8c97b6	0.06864874
212	0xbb528505	-0.0032122743
213	0xbe04cc8d	-0.12968655
214	0x3d54eca7	0.0519835
215	0xbc222910	-0.009897485
216	0xbdf6232b	-0.120184265
217	0x3d671f3f	0.056426283
218	0xbb9cb349	-0.0047821146
219	0x3da71928	0.08159095
220	0x3e7c8376	0.24659523
221	0x3dbac710	0.091199994
222	0x3cf05922	0.029339377
223	0x3d8139f1	0.063098796
224	0x3d193c2c	0.0374109
225	0xbd781932	-0.060570903
226	0x3e942a75	0.28938642
227	0x3dc967a0	0.09834218
228	0xbd03e904	-0.032204643
229	0x3de4c982	0.11171247
230	0xbe2edfc9	-0.17077555
231	0x3dd2ed11	0.10299123
232	0xbde72a94	-0.11287418
233	0xbd0c5bec	-0.03426735
234	0xbdd13d49	-0.10216767
235	0xbe001ec8	-0.12511742
236	0x3c8bd916	0.017071288
237	0x3d9ceb80	0.076621056
238	0x3db1bf84	0.08679107
239	0xbd32ba47	-0.04363468
240	0xbd621971	-0.055200044
241	0x3dea31fd	0.11435316
242	0x3ccd518f	0.025063304
243	0xbe76798f	-0.24069808
244	0xbcafd2a7	-0.021462752
245	0x3d22ee65	0.039778132
246	0x3de193b8	0.11014503
247	0x3cebf413	0.028802907
248	0xbda8d952	-0.082445756
249	0xbb1a13eb	-0.0023510407
250	0x3dd16039	0.10223431
251	0xbe05804a	-0.1303722
252	0xbdc8b95e	-0.09800981
253	0x3dff8a28	0.12477523
254	0xbdb81c0e	-0.08989726
255	0xbde66b08	-0.11250883

fc2.bias f4 [32]
0	0x3d923324	0.071386606
1	0xbc85f789	-0.016353386
2	0xbe85e10e	-0.26148266
3	0x3ee591a6	0.44837683
4	0xbd88e4f3	-0.066842936
5	0xbdde3531	-0.10849989
6	0xbe2557b7	-0.16146742
7	0xbbd8657a	-0.006603894
8	0xbe268df2	-0.16265085
9	0xbf002bfb	-0.5006711
10	0x3ea03f3c	0.31298244
11	0x3d237dac	0.039914772
12	0xbcbe4b29	-0.023229199
13	0xbe817902	-0.25287634
14	0xbec6f576	-0.38859147
15	0x3e051339	0.12995614
16	0x3e8378fa	0.25678235
17	0x3e7b24ce	0.24525759
18	0x3d3602dd	0.044436324
19	0xbe46a734	-0.1939972
20	0x3c98db45	0.018659243
21	0x3e3a7695	0.18209298
22	0x3e049289	0.12946524
23	0xbd9acb42	-0.075582996
24	0x3e9f4ae6	0.3111183
25	0xbd39968a	-0.04530958
26	0x3de6207b	0.11236664
27	0x3e1f01fc	0.155281
28	0xbd428b17	-0.047495928
29	0xbe1e4408	-0.1545564
30	0x3eaa2a3b	0.33235344
31	0x3e4ae4a1	0.19813778

fc3.weight f4 [5, 32]
0	0xbe84cfc2	-0.25939757
1	0xbc012a11	-0.007883565
2	0x3ec0387e	0.375431
3	0xbeaac85f	-0.33355996
4	0xbd6499e3	-0.05581082
5	0xbdb0ba46	-0.08629279
6	0x3db863e1	0.090034254
7	0x3df36454	0.118843704
8	0x3e6f158a	0.2334806
9	0x3e71b477	0.23603998
10	0xbf03adc1	-0.51437
11	0x3d969edd	0.073545195
12	0x3dc5a144	0.096498996
13	0x3d6e75b0	0.058217704
14	0x3e85c127	0.26123926
15	0xbf183147	-0.5945019
16	0xbeaba0a3	-0.33520994
17	0xbe9b15cf	-0.30290076
18	0xbd9a4387	-0.07532411
19	0x3e0852a8	0.13312781
20	0x3e15f44c	0.14643973
21	0xbf10fb92	-0.56633866
22	0xbea0e0fe	-0.31421655
23	0x3e8d9a35	0.27656713
24	0xbefa0ad7	-0.48836395
25	0x3de05d4b	0.10955294
26	0xbe2cc021	-0.16870166
27	0xbe803cc5	-0.25046363
28	0xbe3b152a	-0.18269792
29	0xbe082797	-0.13296352
30	0xbe5a4b79	-0.21317853
31	0xbf0cd327	-0.5500969
32	0xbeda518e	-0.42640346
33	0x3e677cb7	0.22606169
34	0xbe675380	-0.22590446
35	0xbe2e9f0b	-0.17052858
36	0xbf09fab9	-0.538982
37	0x3db87979	0.09007544
38	0xbe9fa7c1	-0.31182674
39	0x3dda9f98	0.10674971
40	0x3e436e20	0.19084978
41	0xbb8b7b7f	-0.0042566652
42	0xbce90539	-0.028444873
43	0xbbd5ee61	-0.006528661
44	0x3acb12ab	0.0015493234
45	0xbe60bd94	-0.21947318
46	0x3e706e92	0.23479679
47	0x3e63e11f	0.22253846
48	0x3ee4032a	0.44533664
49	0xbd2ca698	-0.042151064
50	0x3d612e7b	0.054975968
51	0xbebe570f	-0.37175795
52	0xbd3dcad6	-0.046336018
53	0x3e9e2d08	0.3089373
54	0x3d4e1951	0.050317112
55	0x3b890209	0.004181151
56	0x3e93b3b8	0.28848052
57	0xbdc86efc	-0.097867936
58	0x3e87ac9d	0.2649888
59	0x3eb5e9f6	0.3553006
60	0xbd1bc9ee	-0.038034372
61	0xbdf39660	-0.11893916
62	0xbec583c0	-0.3857708
63	0x3d7158ba	0.058922507
64	0x3f0c64c7	0.54841274
65	0xbeb7d17f	-0.3590202
66	0x3b801d2c	0.0039097276
67	0xbef8073c	-0.4844302
68	0x3e17c94f	0.14822887
69	0x3dc6ed1c	0.09713194
70	0x3e6e58f2	0.23276117
71	0xbeef8508	-0.46781182
72	0xbf053639	-0.5203586
73	0x3c9ccd6e	0.019140925
74	0xbee99370	-0.45620298
75	0xbf0bd5bb	-0.54623
76	0xbee075c9	-0.43839863
77	0x3db3597b	0.087573014
78	0xbe9d36e7	-0.3070595
79	0x3ef4e87b	0.4783362
80	0xbe443177	-0.19159494
81	0xbdcd86ce	-0.100354776
82	0xbd8a83ce	-0.06763421
83	0xbc722200	-0.014778614
84	0xbed5def0	-0.4177165
85	0x3e7e7e9a	0.24852982
86	0xbe90e2a0	-0.282979
87	0xbee1e164	-0.44117272
88	0x3d3be9c7	0.045877244
89	0xbe077cab	-0.13231151
90	0xbe9db0df	-0.30799004
91	0xbee0ba50	-0.43892145
92	0x3e3afbf9	0.18260182
93	0xbd3c219b	-0.045930486
94	0xbec93b87	-0.39303228
95	0x3ed58e4f	0.41710135
96	0xbf1083e6	-0.5645126
97	0xbb3a235f	-0.002840243
98	0x3c72a456	0.014809689
99	0x3e455d19	0.19273795
100	0xbe642d59	-0.22282924
101	0x3e405584	0.18782622
102	0xbf766a35	-0.9625581
103	0x3dd5b6c9	0.10435254
104	0x3e5cecf0	0.2157476
105	0xbed60c66	-0.41806334
106	0x3e129a7c	0.14316744
107	0x3e8f98e7	0.28046343
108	0x3e4a7bfb	0.19773857
109	0xbe882526	-0.26590842
110	0xbd891aec	-0.06694588
111	0xbed2672d	-0.41094342
112	0xbec417ea	-0.38299495
113	0x3efcdeeb	0.49388823
114	0xbc29e70f	-0.01037003
115	0x3e44a168	0.19202197
116	0x3e089319	0.13337363
117	0xbef0b7dd	-0.47015277
118	0x3c23107e	0.0099526625
119	0x3e89ac2d	0.26889172
120	0xbf910b31	-1.133154
121	0x3b5e83e7	0.0033953132
122	0xbdf3c1cb	-0.119021975
123	0xbec03f69	-0.37548378
124	0xbd7dbb77	-0.06194636
125	0xbe4221c2	-0.1895819
126	0xbe700347	-0.2343875
127	0xbd5cd4de	-0.053913943
128	0xbed30fba	-0.41222936
129	0xbe365cb7	-0.17808805
130	0xbf236eb1	-0.63840777
131	0x3eec1fe8	0.46118093
132	0xbc49f43a	-0.012326295
133	0xbdc5fa3b	-0.09666868
134	0xbe934967	-0.2876694
135	0x3dda5009	0.10659797
136	0xbcf347f2	-0.029697392
137	0xbd851bfd	-0.06499479
138	0x3f2f3e35	0.68454295
139	0xbd92c3dc	-0.071662635
140	0x3db1f168	0.08688623
141	0xbe974666	-0.29545897
142	0xbed51585	-0.4161798
143	0xbe848559	-0.25882986
144	0x3e18c3c8	0.14918435
145	0x3e32e9a2	0.17471936
146	0xb941a8a7	-0.00018468742
147	0xbf33c3d8	-0.7022071
148	0x3e77bb67	0.24192582
149	0xbe9b7b19	-0.30367354
150	0x3e34e441	0.17665197
151	0x3d72f9a5	0.05932011
152	0x3e670c90	0.22563386
153	0xbeadee42	-0.3397084
154	0xbbc0e8cc	-0.0058871266
155	0xbe946be4	-0.28988564
156	0xbdb03858	-0.08604497
157	0xbe0993b6	-0.13435254
158	0x3f652ba5	0.8951972
159	0xbe285ed9	-0.16442432

fc3.bias f4 [5]
0	0xbebe52c5	-0.37172523
1	0xbd33f275	-0.043932397
2	0x3da51ea8	0.08062488
3	0x3d854f58	0.06509274
4	0x3f1c4b63	0.6105253
